verification_practice/src/controller_models/double_integrator/di_4layer/constraint_default_more_data_5hz.pth (torch, 6159 bytes, 7 tensors)

fc1.weight f4 [30, 2]
-0.5419854 0.4391534 -0.16808255 -0.22008276 0.37308446 0.54142636 -0.35512164 -0.853767
-0.40493932 -0.72099465 -0.63373214 0.42613056 0.3614578 0.30480838 0.08610504 0.47829798
0.79345655 0.49809566 -0.38347644 -0.2723723 -0.21793947 0.23891193 0.15723033 0.76009226
-0.0791619 0.6333487 0.35966042 -0.06621055 -0.3570935 0.27592716 0.039157707 -0.35753644
0.54582256 -0.24199586 -0.49099043 -0.5518 0.6977435 0.46119645 -0.46965745 0.54426074
0.038698625 -0.87072164 0.36648056 -0.443383 -0.25151816 0.031364717 -0.6439498 0.017462704
0.65647197 0.29512376 -0.07777619 0.3221984 -0.06186078 -0.22787604 0.2441922 0.00011244807
0.37455174 -0.39225212 0.55784005 0.5090331
00000000: 8ebf 0abf b7d8 e03e d51d 2cbe 605d 61be
00000010: ed04 bf3e eb9a 0a3f 81d2 b5be 7990 5abf
00000020: 3554 cfbe 1b93 38bf 453c 22bf c92d da3e
00000030: ff10 b93e d80f 9c3e d757 b03d 79e3 f43e
00000040: f81f 4b3f 6506 ff3e 0657 c4be 6274 8bbe
00000050: 862b 5fbe 54a5 743e fd00 213e 6895 423f
00000060: a21f a2bd 2423 223f 6925 b83e 6699 87bd
00000070: f6d4 b6be 5346 8d3e d563 203d 040f b7be
00000080: 07bb 0b3f c3cd 77be 1963 fbbe c442 0dbf
00000090: 519f 323f f121 ec3e f176 f0be ac54 0b3f
000000a0: 7382 1e3d 9de7 5ebf 57a3 bb3e 1903 e3be
000000b0: fdc6 80be 4a78 003d e5d9 24bf f20d 8f3c
000000c0: 8c0e 283f 761a 973e 2049 9fbd 30f7 a43e
000000d0: bb61 7dbd 5658 69be 850d 7a3e 19d2 eb38
000000e0: 3fc5 bf3e 45d5 c8be 9bce 0e3f fe4f 023f

fc1.bias f4 [30]
-0.28477216 0.3588001 0.118455805 0.6946827 0.66814655 0.49167413 0.49012458 0.24725789
-0.260947 -0.40733573 0.7897755 0.36807588 -0.5434271 0.304257 -0.22613746 -0.64298135
0.807355 0.20402825 0.21570079 -0.018690972 -0.43965408 0.78924423 -0.25006184 -0.6926041
0.70166093 -0.30331132 -0.3784192 0.5821275 0.49207735 -0.47094974
00000000: a8cd 91be a6b4 b73e f598 f23d bad6 313f
00000010: a70b 2b3f b6bc fb3e 9cf1 fa3e 2c31 7d3e
00000020: d89a 85be 4f8e d0be ba2e 4a3f 7174 bc3e
00000030: 0a1e 0bbf 93c7 9b3e 9490 67be 6d9a 24bf
00000040: d1ae 4e3f c8ec 503e abe0 5c3e cf1d 99bc
00000050: 571a e1be e90b 4a3f 1b08 80be 814e 31bf
00000060: 0da0 333f 9f4b 9bbe 29c0 c1be 4f06 153f
00000070: 90f1 fb3e 5320 f1be

fc2.weight f4 [20, 30]
-0.0154132135 -0.33564737 0.1345551 -0.23084542 -0.1467095 -0.07927842 -0.13213494 0.36716092
-0.12447834 -0.0317959 0.055724043 -0.023336912 0.008194936 -0.052821275 -0.163519 0.15180692
-0.09277092 0.038846765 0.10147317 0.050998982 -0.27706847 -0.028160054 0.026895046 0.08544871
0.10845594 0.15014273 -0.005570895 0.14107487 -0.06433374 -0.10733382 -0.058129486 0.17479342
0.20972656 0.11774306 -0.02692347 -0.12778422 0.10953867 0.2159345 -0.049451243 0.13905095
-0.055900276 0.08592495 -0.11394729 0.1228825 -0.0772468 0.16635425 0.28209525 0.036962256
0.035315868 0.15458117 0.11259223 0.28733376 -0.1412452 -0.007925274 0.08423073 -0.04208859
-0.017496947 0.12387859 0.2896194 -0.07157626 -0.14621167 0.12035524 -0.25360048 0.14421315
0.016592788 -0.31209472 -0.020110931 -0.22741279 -0.06344571 0.104496025 -0.13245425 -0.12316822
0.053240437 -0.036795393 -0.11133203 -0.07428446 0.23488304 -0.044305436 -0.20829564 -0.112675324
0.44204012 0.16133024 -0.11124771 0.18223506 -0.14943452 -0.17763738 -0.12962423 0.15645339
0.007770763 -0.21254452 -0.05092181 -0.11993654 0.16337961 -0.013312738 -0.06184482 0.1598618
-0.18112352 -0.068989515 0.17003457 -0.12958094 0.057461612 -0.12015299 -0.149738 -0.079530984
-0.13191591 -0.05418961 -0.109523766 -0.07575924 -0.0659073 -0.07286211 -0.10127295 -0.014138834
0.022695292 -0.04486429 -0.10509999 0.14583738 -0.14456657 0.1416193 0.0324182 -0.05493059
-0.15279582 0.028033664 -0.14477961 0.10902381 -0.008464683 -0.15387538 0.16936839 0.023085954
0.05590505 -0.0027960185 0.15101293 -0.0818013 -0.12758076 0.09693628 -0.023975385 0.029525165
-0.15022264 0.068162836 -0.1863528 -0.007343947 -0.067712344 -0.17255561 0.045628186 -0.044414937
0.025018256 -0.1562725 0.15117712 -0.18682171 -0.11054831 -0.120870456 -0.14228657 0.028772332
-0.073807456 0.05508842 0.03290072 0.14406796 -0.07210377 -0.0654668 -0.1742188 -0.016146705
0.16015339 -0.12494533 -0.13241579 0.08996107 0.066142984 0.13887382 -0.14505014 -0.06742433
0.15022053 -0.10742134 -0.12015834 -0.086251944 -0.16533603 -0.062450904 -0.008925105 0.051144034
0.10787535 -0.090561986 -0.114890926 -0.13680466 0.0011876608 -0.04572429 -0.14571132 0.094334185
0.05428848 -0.0909487 -0.14756057 -0.105077475 -0.10300281 -0.115800865 -0.12688439 0.11900554
-0.14341216 0.06982042 -0.1242143 -0.074873015 -0.07075431 -0.0033261443 -0.044554006 0.06782391
0.14472394 0.10442696 0.077247 0.11151697 -0.1281072 -0.10871298 0.15315208 -0.18440817
-0.17806382 0.15794039 0.013574351 0.08638297 -0.13228822 -0.04494282 -0.10291063 -0.1289159
-0.02735348 -0.16152349 0.045073796 0.10668887 -0.09683109 0.124269694 0.11867006 -0.10852459
-0.14730574 -0.0066607543 -0.16175513 -0.15559964 -0.094732605 -0.13627715 -0.065255865 -0.022562183
0.002588413 -0.15763402 0.14289828 0.119985834 -0.12285858 -0.1252288 0.07153507 0.15124318
-0.12368128 0.039066296 -0.24789761 0.052562084 0.29582712 -0.15271157 0.039683703 0.013687319
-0.259021 -0.022266898 -0.18936148 -0.21464245 -0.16236526 -0.050567336 0.082901396 0.15909564
00000000: b487 7cbc f9d9 abbe d0c8 093e be62 6cbe
00000010: 043b 16be b95c a2bd 624e 07be 84fc bb3e
00000020: 80ee febd 6b3c 02bd e53e 643d 0d2d bfbc
00000030: 0e44 063c 1f5b 58bd 8671 27be 4673 1b3e
00000040: aefe bdbd c91d 1f3d 2ad1 cf3d 4fe4 503d
00000050: ebdb 8dbe eaaf e6bc 0053 dc3c bcff ae3d
00000060: 261e de3d 04bf 193e 0e8c b6bb ee75 103e
00000070: 68c1 83bd d5d1 dbbd 2f19 6ebd 0cfd 323e
00000080: 8fc2 563e 4623 f13d 9c8e dcbc ded9 02be
00000090: cf55 e03d ef1d 5d3e 638d 4abd 5f63 0e3e
000000a0: b0f7 64bd 6cf9 af3d 325d e9bd d2a9 fb3d
000000b0: 9233 9ebd c558 2a3e ca6e 903e bc65 173d
000000c0: 5fa7 103d 874a 1e3e c196 e63d 691d 933e
000000d0: 95a2 10be 02d9 01bc 2981 ac3d 1665 2cbd
000000e0: c255 8fbc 0fb4 fd3d fe48 943e 9396 92bd
000000f0: 83b8 15be cf7c f63d ecd7 81be 9dac 133e
00000100: 99ed 873c e1ca 9fbe aebf a4bc e6de 68be
00000110: d3ef 81bd 0302 d63d 16a2 07be 9f3f fcbd
00000120: a512 5a3d c4b6 16bd 0c02 e4bd 7322 98bd
00000130: 2e85 703e 9e79 35bd 744b 55be 52c2 e6bd
00000140: 1553 e23e c133 253e d7d5 e3bd d49b 3a3e
00000150: 5d05 19be 93e6 35be 37bc 04be 5135 203e
00000160: e2a1 fe3b 45a5 59be 6393 50bd 4aa1 f5bd
00000170: fc4c 273e ac1d 5abc fe50 7dbd d0b2 233e
00000180: 7278 39be 604a 8dbd 8b1d 2e3e deb0 04be
00000190: de5c 6b3d c512 f6bd eb54 19be 24e1 a2bd
000001a0: f714 07be edf5 5dbd ff4d e0bd a927 9bbd
000001b0: 68fa 86bd bb38 95bd 3168 cfbd 91a6 67bc
000001c0: 7aeb b93c 9ec3 37bd aa3e d7bd 6556 153e
000001d0: 4209 14be a604 113e f2c8 043d e6fe 60bd
000001e0: 8276 1cbe dba6 e53c 1b41 14be e047 df3d
000001f0: 74af 0abc 8291 1dbe e86e 2d3e c11e bd3c
00000200: b2fc 643d 683d 37bb 22a3 1a3e 7187 a7bd
00000210: 88a4 02be 8786 c63d 0768 c4bc c2de f13c
00000220: f7d3 19be f598 8b3d 45d3 3ebe 7ea5 f0bb
00000230: c5ac 8abd 6bb2 30be 9fe4 3a3d 70ec 35bd
00000240: 16f3 cc3c e605 20be 2dce 1a3e 314e 3fbe
00000250: 2767 e2bd ee8a f7bd 92b3 11be f4b3 eb3c
00000260: 5d28 97bd 65a4 613d e8c2 063d 8d86 133e
00000270: 24ab 93bd 7513 86bd 6a66 32be 1846 84bc
00000280: 40ff 233e 56e3 ffbd 0198 07be 823d b83d
00000290: f975 873d f034 0e3e 0688 14be c415 8abd
000002a0: 69d3 193e b8ff dbbd 9315 f6bd dca4 b0bd
000002b0: d94d 29be 85cc 7fbd 9b3a 12bc 687c 513d
000002c0: c0ed dc3d 9078 b9bd ef4b ebbd 8516 0cbe
000002d0: 49ab 9b3a 6549 3bbd 5935 15be 4832 c13d
000002e0: 995d 5e3d 5043 babd 1e1a 17be dc32 d7bd
000002f0: 23f3 d2bd 0129 edbd fbed 01be 2db9 f33d
00000300: a3da 12be 02fe 8e3d 1164 febd 0657 99bd
00000310: a3e7 90bd 71fb 59bb 437e 36bd 43e7 8a3d
00000320: 8332 143e cddd d53d ad33 9e3d 0263 e43d
00000330: 892e 03be e9a4 debd e6d3 1c3e 7fd5 3cbe
00000340: 5d56 36be 20bb 213e f466 5e3c 8ee9 b03d
00000350: 9076 07be f615 38bd cfc2 d2bd 8802 04be
00000360: 6814 e0bc 6a66 25be 4d9f 383d b27f da3d
00000370: 614f c6bd 1c81 fe3d 4a09 f33d 2442 debd
00000380: 51d7 16be 7542 dabb 23a3 25be 8355 1fbe
00000390: 2b03 c2bd 3d8c 0bbe dea4 85bd 54d4 b8bc
000003a0: 5da2 293b d06a 21be ed53 123e 22bb f53d
000003b0: 479d fbbd fb3b 00be fb80 923d 7edf 1a3e
000003c0: 9c4c fdbd fb03 203d dfd8 7dbe 574b 573d
000003d0: a776 973e 6c60 1cbe 618b 223d c740 603c
000003e0: 679e 84be 1269 b6bc fae7 41be 3bcb 5bbe
000003f0: 1443 26be b21f 4fbd 35c8 a93d f8e9 223e

fc2.bias f4 [20]
0.0077733845 0.110182375 0.18475315 0.11045835 -0.021564469 0.020483967 -0.07177654 0.0018668914
0.057107568 0.057696305 0.06815841 -0.06602682 0.11655896 0.15549788 -0.18372531 -0.05984153
-0.11694219 -0.18813124 -0.025892626 0.07673745
00000000: e0b7 fe3b 4ca7 e13d ee2f 3d3e fd37 e23d
00000010: f8a7 b0bc fecd a73c 94ff 92bd 7bb2 f43a
00000020: a0e9 693d f652 6c3d a396 8b3d 1239 87bd
00000030: 77b6 ee3d d63a 1f3e 7d22 3cbe 641c 75bd
00000040: 637f efbd 7aa5 40be c61c d4bc 8628 9d3d

fc3.weight f4 [10, 20]
-0.048738647 -0.17640723 -0.11330838 -0.09142334 -0.17783625 0.20529988 0.19504514 0.14741345
-0.12917149 -0.17340085 -0.03291507 -0.08452124 -0.15165749 0.18767267 0.15390277 -0.008936803
-0.031697925 0.17713606 -0.06624445 -0.21205361 0.055990625 0.05786814 0.094013005 0.15500164
0.0015026914 0.10515416 -0.002017982 0.06546809 0.052445017 -0.119768016 0.053652614 0.09635835
0.022289997 -0.09634216 -0.24411845 0.06347344 -0.08851032 -0.0037950533 0.19217987 -0.09902183
0.07062841 0.13543975 -0.08455836 -0.15503633 0.049264725 0.15211812 -0.21570295 0.09953062
0.052305486 -0.17921904 -0.09025072 -0.14897542 0.1129499 0.092375934 -0.23765443 -0.081387356
0.14993572 -0.0016633173 -0.07125936 -0.21045355 -0.08701275 0.21123941 0.20729813 -0.074617215
-0.06469453 -0.08376179 -0.12062073 -0.12755539 0.22385879 0.015580694 -0.13933098 0.20544937
-0.047816496 0.1679641 -0.25788817 -0.09180532 0.098189235 0.011603342 0.067248486 0.3405589
0.1531833 -0.056644443 0.10123705 0.14918073 -0.16060212 -0.10865119 -0.008739102 0.025639474
0.111026436 0.08920799 -0.07445649 -0.005456919 -0.14435102 0.13225599 0.06898316 -0.07268809
-0.26602262 0.07834168 -0.0061513986 0.22976711 -0.10393913 0.31827503 -0.26612172 -0.0041968925
0.11840726 0.16984716 -0.036022462 0.15658358 -0.27381858 -0.086841464 0.3790903 -0.080804236
0.1433662 -0.111713775 0.19141902 -0.13961622 -0.09468237 0.012627526 0.1861332 0.12132407
-0.058328975 -0.13808016 0.016109848 0.059120435 0.068326145 -0.14147358 0.14380127 -0.0347338
0.026319884 0.21378379 0.06385746 -0.16382423 -0.041240744 0.03226807 -0.025874926 -0.0003088567
-0.057473864 -0.21871178 -0.030809034 -0.048755974 0.15664303 0.11809936 0.117608845 -0.12144465
0.02728753 -0.113613494 -0.08067479 0.059964053 -0.06146467 -0.12216374 -0.07498171 0.050022617
0.1582973 0.3687254 -0.075143486 -0.18083018 0.046448667 -0.07726137 0.11732814 0.1404614
-0.38728893 0.2923176 -0.23802729 -0.10916008 0.080442056 -0.0111834835 -0.20205487 0.014059319
-0.0042998553 0.0312226 0.10595261 -0.05342123 0.14741623 -0.43005714 0.1816232 -0.020831661
-0.15976623 0.039206635 0.01139544 -0.016552573 -0.16981508 -0.17541851 -0.054530285 -0.018586034
0.18244375 -0.051887833 0.13210317 -0.07236775 -0.08444709 -0.120319955 -0.08640534 -0.14015727
0.17631868 0.2018791 0.02308164 -0.13688366 0.13677935 -0.08258839 -0.11220092 -0.11559227
00000000: 2da2 47bd 19a4 34be 390e e8bd 293c bbbd
00000010: b51a 36be 223a 523e eab9 473e 8df3 163e
00000020: 8845 04be fe8f 31be f4d1 06bd 7919 adbd
00000030: 1a4c 1bbe 442d 403e b098 1d3e ab6b 12bc
00000040: afd5 01bd 2863 353e 2cab 87bd 9524 59be
00000050: 6d56 653d 2507 6d3d e489 c03d c0b8 1e3e
00000060: f5f5 c43a 105b d73d 1f40 04bb 2214 863d
00000070: 96d0 563d ef48 f5bd d8c2 5b3d 8757 c53d
00000080: 8399 b63c 0a4f c5bd 30fa 79be 5dfe 813d
00000090: e644 b5bd 6eb6 78bb cdca 443e f5cb cabd
000000a0: a1a5 903d b8b0 0a3e ef2c adbd d8c1 1ebe
000000b0: cfc9 493d dac4 1b3e 3ce1 5cbe b6d6 cb3d
000000c0: 473e 563d 3285 37be 5fd5 b8bd 038d 18be
000000d0: 4752 e73d 982f bd3d af5b 73be 6aae a6bd
000000e0: c088 193e ab03 daba 6df0 91bd 2381 57be
000000f0: be33 b2bd 254f 583e f645 543e e9d0 98bd
00000100: 917e 84bd 4d8b abbd 0008 f7bd e19d 02be
00000110: 3d3b 653e 2b46 7f3c c8ac 0ebe 5261 523e
00000120: 3bdb 43bd c8fe 2b3e eb09 84be 6d04 bcbd
00000130: 7017 c93d f21b 3e3c 93b9 893d bc5d ae3e
00000140: 15dc 1c3e 0104 68bd 5f55 cf3d d5c2 183e
00000150: e274 24be 8484 debd 732e 0fbc e009 d23c
00000160: d461 e33d aeb2 b63d a57c 98bd f4cf b2bb
00000170: c1d0 13be 1d6e 073e 0b47 8d3d 7edd 94bd
00000180: 1e34 88be 9a71 a03d ac91 c9bb 1248 6b3e
00000190: 0ade d4bd f2f4 a23e 1b41 88be 1686 89bb
000001a0: 817f f23d 6aec 2d3e 4a8c 13bd 7257 203e
000001b0: f331 8cbe f0d9 b1bd 2018 c23e b17c a5bd
000001c0: 97ce 123e 31ca e4bd 5903 443e 8ef7 0ebe
000001d0: d5e8 c1bd afe3 4e3c b499 3e3e c178 f83d
000001e0: 5dea 6ebd e364 0dbe cdf8 833c 4528 723d
000001f0: 94ee 8b3d 73de 10be a440 133e 0745 0ebd
00000200: cc9c d73c 23ea 5a3e b3c7 823d 8ac1 27be
00000210: 0eec 28bd 862b 043d a7f7 d3bc 0bee a1b9
00000220: b769 6bbd fbf5 5fbe 3a63 fcbc 58b4 47bd
00000230: 0867 203e 14de f13d e8dc f03d f9b7 f8bd
00000240: 198a df3c 31ae e8bd d338 a5bd de9c 753d
00000250: 61c2 7bbd fc30 fabd 0390 99bd 84e4 4c3d
00000260: b018 223e 93c9 bc3e d4e4 99bd 8c2b 39be
00000270: f540 3e3d 363b 9ebd bc49 f03d 1dd5 0f3e
00000280: bc4a c6be a7aa 953e 6dbd 73be 528f dfbd
00000290: cebe a43d ee3a 37bc 79e7 4ebe 0f59 663c
000002a0: cde5 8cbb 8ac6 ff3c affd d83d 38d0 5abd
000002b0: 48f4 163e 7330 dcbe 6ffb 393e 29a7 aabc
000002c0: c299 23be 2397 203d f1b3 3a3c 4399 87bc
000002d0: 01e4 2dbe e9a0 33be 265b 5fbd bd41 98bc
000002e0: 89d2 3a3e 5688 54bd 0e46 073e 8b35 94bd
000002f0: 99f2 acbd 4f6a f6bd 48f5 b0bd 6385 0fbe
00000300: e28c 343e 65b9 4e3e b515 bd3c 3b2b 0cbe
00000310: e30f 0c3e 1a24 a9bd 99c9 e5bd a4bb ecbd

fc3.bias f4 [10]
-0.22622402 -0.15789364 -0.13698293 0.034232028 0.14432909 0.1900388 -0.13208775 -0.06449659
-0.09030986 0.028428799
00000000: 45a7 67be dfae 21be 4145 0cbe e236 0c3d
00000010: 01cb 133e 8899 423e 0342 07be ca16 84bd
00000020: 60f4 b8bd 83e3 e83c

fc4.weight f4 [1, 10]
-0.23344101 -0.08404695 -0.1763599 0.45700485 0.29688683 -0.21213727 0.008218434 0.19335696
-0.15676539 0.12380613
00000000: 290b 6fbe cf20 acbd b197 34be 8afc e93e
00000010: 8d01 983e 833a 59be 9ca6 063c 5eff 453e
00000020: 1b87 20be 118e fd3d
